…





Accuracy: 0.6368666666666666   STD: 0.045941557077080745


Accuracy: 0.8538666666666667   STD: 0.04285043757069465 R4

Accuracy: 0.8600666666666668   STD: 0.0416706131464369 TcavFinCavMonitoringControl
Accuracy: 0.8502666666666667   STD: 0.04381192125945226 TcavFinCavMonitoringControl2

Accuracy: 0.7231333333333335   STD: 0.04588347560215261 R6




Model: "sequential"
_________________________________________________________________
Layer (type)                 Output Shape              Param #
=================================================================
conv2d (Conv2D)              (None, 30, 30, 6)         168
_________________________________________________________________
average_pooling2d (AveragePo (None, 15, 15, 6)         0
_________________________________________________________________
conv2d_1 (Conv2D)            (None, 13, 13, 16)        880
_________________________________________________________________
average_pooling2d_1 (Average (None, 6, 6, 16)          0
_________________________________________________________________
flatten (Flatten)            (None, 576)               0
_________________________________________________________________
dense (Dense)                (None, 120)               69240
_________________________________________________________________
dense_1 (Dense)              (None, 84)                10164
_________________________________________________________________
dense_2 (Dense)              (None, 3)                 255
=================================================================
Total params: 80,707
Trainable params: 80,707
Non-trainable params: 0
_________________________________________________________________
None